hey_igloo.onnx (onnx, 205430 bytes, 9 tensors)

layer1.weight f4 [32, 1536]
000000 cd f5 c6 3c b1 11 c9 3c d7 56 98 bc c1 3f e7 ba
       0.024287129 0.024544569 -0.018596096 -0.0017642902
000010 1e ac 92 bb 98 de b8 3a 6f 16 d2 bb 90 78 5f bb
       -0.0044760844 0.0014104424 -0.0064113657 -0.003409896
000020 b1 cd 0a bd fe 60 5f 3c 30 76 16 3c 18 41 39 3c
       -0.03388757 0.013633965 0.0091834515 0.011307023
000030 13 d7 14 3b c6 74 09 bc 7d 17 05 3d 6d af 19 bd
       0.0022711202 -0.008389657 0.032493103 -0.037520815
000040 d2 91 bb bc 6a f8 52 3c 86 eb d6 bc 68 83 c8 bb
       -0.022896681 0.012876609 -0.026235353 -0.0061191805
000050 2b bd 0a 3c f0 f9 8b ba a4 e3 81 bb 03 84 99 3a
       0.008467953 -0.0010679346 -0.0039639045 0.0011712316
000060 7f e7 aa 3c ce 06 74 3c da 18 91 bb 81 d1 9a bc
       0.020862339 0.0148942005 -0.0044280114 -0.018898727
000070 40 ab 93 ba ae ba 12 3a 1d 98 fc 3b 36 8d 58 bc
       -0.0011266246 0.00055972754 0.007708563 -0.013217261
000080 30 c1 ce bc 59 aa f6 3c eb 5e bf 3c 83 97 6a 39
       -0.025238603 0.030110525 0.02336069 0.00022372422
000090 eb 1b 45 3c e5 91 bc bb a6 8a a4 bc 99 14 b3 3b
       0.012030582 -0.0057546967 -0.020085644 0.005465102
0000a0 46 a8 fe bc 8d f2 65 3c 28 78 75 bc 79 c0 17 bc
       -0.031086098 0.014034879 -0.014982261 -0.009262198
0000b0 ac 15 59 3b ef cf 5f 3c ff 61 18 3c 3a 8c 9d 3c
       0.003312449 0.013660415 0.009300708 0.019231904
0000c0 53 ab 23 3c d0 40 ee 3c 32 e1 aa bc 79 4e 1a 3c
       0.009989577 0.02908364 -0.020859335 0.009418123
0000d0 38 94 47 bc 00 6f 2d 3a e4 cd 34 3c a4 ce 88 3b
       -0.012181334 0.00066159666 0.011035416 0.004175024
0000e0 4d 43 dc bb 12 72 10 bc e0 f9 8b bb 3a 6e e4 3b
       -0.00672189 -0.008816259 -0.004271731 0.006971148
0000f0 8f d1 ee 3c 87 90 1e 3b b6 66 49 b9 8e b6 51 3c
       0.02915266 0.0024195032 -0.00019207117 0.012799872
000100 01 34 58 bb 55 de 41 3c a1 c6 a2 3c f6 bb ab bc
       -0.003298998 0.011832793 0.019870104 -0.02096365
000110 d6 01 bf 3b ed 78 5c bc 15 40 69 3c 1b b3 9b bc
       0.0058290763 -0.013456565 0.01423647 -0.019006303
000120 9f 44 96 3c 1a f8 54 3c a0 0d 34 3c 1a 73 a8 3a
       0.018343268 0.012998605 0.010989577 0.0012851686
000130 53 06 34 3c 5b 5c 42 bc 11 c6 13 bc d8 98 cc 3b
       0.010987836 -0.01186284 -0.009019391 0.0062438063
000140 f4 3a 27 bc 45 17 98 bb 35 d8 0d 3c fb 10 9a 3b
       -0.010206927 -0.004641446 0.008657505 0.0047017313
000150 fa 58 66 bc 2b cd b8 bc 36 65 51 3c 7b ec ed 3b
       -0.0140593 -0.02255877 0.012780478 0.0072608567
000160 49 cc 3d bc ad 6d cb bc d3 e4 c0 3b dd 75 6a 3c
       -0.01158435 -0.02483257 0.005886653 0.014310327
000170 5b 43 f0 39 2c c8 0f 3a 29 74 5b 3c bc a7 ec bb
       0.0004582655 0.0005484845 0.013394394 -0.007222144
000180 86 68 19 3c 9b 97 9a bc 88 79 b4 bc a1 fa 47 bc
       0.009363299 -0.01887112 -0.022030607 -0.012205751
000190 d4 ac b3 3c 21 3d bb bc 4a 69 65 3c e2 28 92 bb
       0.021932997 -0.022856297 0.014002154 -0.00446044
0001a0 e3 59 d5 bb 86 e1 56 bc 12 2a 8c 3c 0e 08 b1 bc
       -0.0065109595 -0.013115292 0.017109904 -0.021610286
0001b0 90 f1 7e bc f4 51 2f bc 77 8a 72 bb 61 ed 01 3c
       -0.015560523 -0.0107006915 -0.00370088 0.007930131
0001c0 18 98 2a bc 0c cf 11 bc 45 00 ce bc a2 98 b9 bc
       -0.010412239 -0.0088994615 -0.025146613 -0.022655789
0001d0 ea 10 91 bc 0e 0b 87 3c 15 6a 99 bc 67 af 81 bc
       -0.01770826 0.016484763 -0.018727342 -0.015830709
0001e0 1a 14 f4 3c c6 52 bf 3a 28 c2 c3 3c e9 76 28 bc
       0.029794741 0.0014596812 0.023896292 -0.010282257
0001f0 3a b4 a8 bc 0c 28 1a bc 11 da 95 bc e9 ac f4 bc
       -0.020593751 -0.009408962 -0.018292459 -0.029867606
000200 bc ae 01 bc 15 f8 b7 bb 98 66 0d bc d8 46 5b bc
       -0.007915195 -0.0056142905 -0.008630417 -0.01338359
000210 0a 55 9a bc 9e 1d 63 3c 68 0c 59 bc 4c 28 1d bc
       -0.018839378 0.013862042 -0.013247587 -0.009592127
000220 ba ef 4d 3c 71 cd b8 3c 18 35 6a bc 02 71 cf 3b
       0.012569362 0.0225589 -0.014294885 0.0063306103
000230 82 90 c1 bb 2e 8f 93 bc 9a 2a 8f bc fe c3 b1 bb
       -0.0059071193 -0.01801261 -0.017476369 -0.0054249754
000240 c7 e9 78 3b f6 78 5b 3d 74 0c 2c bc 93 87 10 3d
       0.003798114 0.053582154 -0.010501016 0.035285544
000250 28 30 b3 bc 52 7f 23 3c b7 62 b4 3c 08 0c 8c bc
       -0.021873549 0.009979086 0.022019727 -0.01709558
000260 b8 d0 ae 3b d2 e7 31 bc bb e3 d8 3c 72 0f 20 bc
       0.00533494 -0.010858493 0.026475778 -0.009769307
000270 4a e6 ec 3b 9b b2 fa bc 08 a8 93 3c ec 9c 8d 3c
       0.007229601 -0.030602744 0.01802446 0.01728674
000280 b2 26 83 bc d3 24 1f 3c 42 cf 85 3c 26 e8 2a 3c
       -0.016009662 0.009713369 0.01633418 0.010431325
000290 2b bf 93 bc 83 ce 3d 3b 92 f1 a1 bc 13 e8 be 3b
       -0.018035492 0.0028962202 -0.01976851 0.0058260052
0002a0 2c 8c 70 bc c9 d4 19 3b b3 39 16 3c a0 10 fa ba
       -0.014681857 0.0023472777 0.00916903 -0.0019078441
0002b0 0a 1d 28 3c ee 6e 7b 3c 46 d1 bd 3c 70 9e 79 bc
       0.01026083 0.015346272 0.023171078 -0.015235528
0002c0 9d 28 53 bc f2 c6 83 bb 0c 0e 84 bb 09 1c d9 3a
       -0.012888101 -0.004021519 -0.004029995 0.0016564141
0002d0 67 1a d0 3c 47 fb f3 3a ab be 89 bc 74 42 df bc
       0.025403215 0.0018614315 -0.01681455 -0.027253367
0002e0 46 85 95 3b ce 05 93 bb 1b 51 ab 3c ab 05 1e bc
       0.0045630066 -0.004486776 0.020912698 -0.009644906
0002f0 cf 81 89 b9 ce 3b 5f bc 0e 5e 1a bc 35 ac ce bc
       -0.0002622739 -0.013625098 -0.009421838 -0.0252286
000300 c4 f1 1e 3c b0 76 08 bc 9d bd fc bc 48 57 41 bc
       0.009701196 -0.008329079 -0.030852133 -0.011800595
000310 94 82 c3 3c 13 14 fe 3b 9d 2d 82 3c 79 f5 d7 bb
       0.023865975 0.007753858 0.01589089 -0.006590542
000320 14 e1 81 3c 32 83 76 3c eb c3 fb ba 20 14 54 bc
       0.015854396 0.015045928 -0.0019208168 -0.012944251
000330 4b 89 08 bd 7e 51 90 bc 0b 75 84 bc 2d bc 98 bc
       -0.033334058 -0.017616984 -0.016169092 -0.018644417
000340 71 55 0b ba e7 78 0c 3c 9f 27 ce bc a7 59 c2 bb
       -0.0005315161 0.008573747 -0.025165377 -0.0059310975
000350 a8 98 30 3c b0 90 6d 3c 9b 64 8b 3b 12 3a cf bc
       0.010778584 0.014499828 0.0042539365 -0.025296245
000360 d9 98 c3 bc cc c4 3f 3c e4 43 d7 3b b4 46 98 bc
       -0.023876594 0.011704635 0.0065693725 -0.018588401
000370 8a d9 8b bc 9e a8 00 bd 56 20 3e 3c 9f f8 e4 bc
       -0.017071504 -0.031410806 0.011604389 -0.027950583
000380 66 43 53 bc 1f ac 83 bc 2d c9 e7 bc b1 0c c9 3c
       -0.012894487 -0.016073285 -0.02829417 0.024542185
000390 82 73 b8 bc ba 3a a7 bc 42 60 7d 3c 41 2a db 3c
       -0.022516016 -0.020413745 0.015464844 0.026753547
0003a0 29 3d 86 bc c7 15 0e 3d 2b 72 90 bc 0b 7a 8a 3c
       -0.016386585 0.034688737 -0.017632565 0.016903898
0003b0 af 02 88 3c 54 7e 73 3c 78 5b 0b 3b a6 1c b0 bb
       0.016602842 0.014861662 0.0021264236 -0.005374509
0003c0 9c 8b b0 bc 59 f6 20 3d 4c 9a f2 3c de 33 f5 3a
       -0.021550946 0.039297435 0.02961459 0.0018707474
0003d0 06 c2 76 3c 62 c6 57 3b 28 bf a9 bc f3 df 34 3c
       0.015060907 0.0032924642 -0.020721033 0.011039722
0003e0 aa 43 d4 3b 19 99 9b 3b c1 e7 c5 bb 43 85 ac bc
       0.0064777927 0.0047484753 -0.00603959 -0.021059638
0003f0 bb ca 4d bc 5a 83 e5 bc 0a 70 8f 3c af e5 c3 bc
       -0.012560542 -0.028016735 0.01750948 -0.023913233

layer1.bias f4 [32]
000000 1d 0c b6 3b a7 9d a2 3c cb 90 c2 bc 82 20 03 3c
       0.0055556432 0.019850565 -0.023750683 0.008003356
000010 59 ce a8 bc 11 7c 63 bc 56 40 02 ba 48 51 c3 bc
       -0.020606207 -0.01388456 -0.0004968693 -0.023842469
000020 f4 d7 85 3c be e2 8b bc 9f 7c 4c 3c 29 56 c4 3a
       0.016338326 -0.017075893 0.012480884 0.0014979291
000030 5a 09 e0 ba 0a a2 8d 3c 6e 40 c6 3b 7b 28 14 3b
       -0.0017092631 0.01728918 0.006050161 0.0022607136
000040 96 86 98 ba 62 42 fe ba 69 88 de bc c5 85 6a bc
       -0.001163679 -0.0019398446 -0.027164655 -0.01431412
000050 49 39 82 bc a7 63 4d 3c 85 80 02 bc db ad c6 ba
       -0.015896456 0.012535966 -0.007965212 -0.0015158014
000060 9d 8a f8 bb 91 c4 e1 bb cc d2 8b bc 15 7e 4f bc
       -0.0075848834 -0.0068898876 -0.01706829 -0.012664338
000070 54 06 d1 bc fb 21 7c 3a bd 49 ec 3c 78 53 0b bc
       -0.025515713 0.00096181006 0.028843755 -0.008503787

layernorm1.weight f4 [32]
000000 b2 76 7c 3f 95 69 7f 3f 48 53 7b 3f 53 ab 80 3f
       0.98618615 0.9977048 0.9817395 1.0052284
000010 ab 24 7f 3f cb 65 82 3f f4 23 81 3f 68 ce 7d 3f
       0.99665326 1.0187315 1.0089097 0.99143076
000020 06 2d 7f 3f 66 3c 79 3f cb 6f 7b 3f 20 04 84 3f
       0.99678075 0.97357786 0.9821746 1.0313759
000030 47 b9 7f 3f 88 6b 82 3f 24 d9 7f 3f c8 69 7d 3f
       0.99892086 1.0189066 0.99940705 0.98989534
000040 0d b8 82 3f 54 9c 81 3f 3f 14 7f 3f a9 34 7e 3f
       1.0212418 1.0125833 0.9964027 0.99299103
000050 ee 20 83 3f 36 cf 81 3f 4a 48 7e 3f 4e 01 83 3f
       1.0244424 1.0141361 0.99329054 1.0234773
000060 cf 68 7e 3f 1a 79 7d 3f bf e6 7d 3f d9 ba 73 3f
       0.99378675 0.9901291 0.99180216 0.9520698
000070 50 8c 7d 3f b9 08 80 3f 6c 9f 7e 3f 22 9b 7e 3f
       0.99042225 1.0002662 0.9946201 0.99455464

layernorm1.bias f4 [32]
000000 02 72 a6 bc 6b 5e bc 3c ba 15 8e 3c 4a 1f ae 3b
       -0.020318035 0.02299424 0.017344344 0.0053137885
000010 6d ca 46 bc 66 aa 87 3c dd 68 d7 3b a6 fe 4a bc
       -0.012133223 0.016560744 0.00657378 -0.0123898145
000020 a3 a6 8f b7 0d 18 45 bc 80 d8 53 bc 22 25 ea 3c
       -1.7124525e-05 -0.01202966 -0.012930036 0.02858216
000030 91 90 53 bc ca 5a f9 3b f5 62 5e bc 2a 54 8c bc
       -0.012912885 0.0076097 -0.013573398 -0.017129976
000040 c4 21 5e bb 33 11 08 3c 80 fa 38 bc c9 e8 a0 3b
       -0.0033894638 0.008304882 -0.011290193 0.0049105627
000050 b8 1a 67 3c 88 da 9d 3c 5e cd 8b bc 41 17 07 3c
       0.014105491 0.019269243 -0.0170657 0.00824529
000060 95 4c 45 bc 4c cb e6 bc 8c f5 aa bc c2 5f c6 3c
       -0.012042184 -0.028173111 -0.020869039 0.024215583
000070 56 77 1f 3d aa f9 69 bb 89 97 a4 3a df 96 8b bc
       0.038932167 -0.003570179 0.0012557368 -0.017039714

blocks.0.fcn_layer.weight f4 [32, 32]
000000 57 b1 9b bd 6d 3f 90 bb 35 c9 ce 3d 26 87 aa bc
       -0.07602184 -0.004402092 0.10096971 -0.020816397
000010 9f 71 98 bc f2 2d 35 3e d8 c6 ef 3c b5 a5 e0 bd
       -0.018608866 0.17693308 0.02926962 -0.10969106
000020 65 07 ce bd 73 33 49 3d c6 cf b2 3d ff f7 59 3e
       -0.10060004 0.04912133 0.08731036 0.21286009
000030 40 d1 ca 3d 6f 46 96 bd 8d 2b b5 bd 91 82 21 be
       0.099031925 -0.07337653 -0.08846197 -0.15772463
000040 c1 74 88 bd 36 22 05 be e1 64 65 bd 11 88 09 bd
       -0.06662894 -0.13001332 -0.05600441 -0.03357703
000050 b2 41 48 3e d0 30 fe 3d 19 fa 00 be f2 ec 57 3d
       0.19556311 0.12411654 -0.12595405 0.052716203
000060 4a 18 b1 bd 66 cd 18 3e d3 36 94 3d 42 78 23 bd
       -0.08647211 0.14922103 0.072370194 -0.03990961
000070 4f e9 47 bd 6a 58 7d bd 51 b7 57 3d df 02 4b 3c
       -0.048806485 -0.061851896 0.05266506 0.012390821
000080 4c d7 06 3e 07 f1 e3 3c 3b 05 cd bd 62 1b 2b 3e
       0.13168067 0.027824892 -0.10010763 0.16709664
000090 97 9e 0e be ef ce 5f 3a ca a8 45 3d c5 ee 27 be
       -0.13927685 0.00085376104 0.048256673 -0.16399677
0000a0 1c 52 94 bb 16 4c ae 3d b0 4a 4f 3d 97 7f 3b 3e
       -0.0045263898 0.08510606 0.050608337 0.1831039
0000b0 87 da ab 3d 14 49 6b bd 33 11 1a be 57 5a f4 bd
       0.0839129 -0.05744274 -0.15045623 -0.119312935
0000c0 35 fc b3 3c 1e 19 85 bd b5 06 16 3e 0a 39 b7 3c
       0.021970848 -0.06498931 0.14650996 0.022366066
0000d0 7f e6 00 bd 1d db 25 3e db 3c 9a bd 88 e5 4a 3d
       -0.03146982 0.16196866 -0.075311385 0.049535304
0000e0 d4 7b 96 3c a2 e5 c0 bc 82 37 8d bd 7f 6c 99 3d
       0.018369593 -0.023546997 -0.06895353 0.07491397
0000f0 67 0b 4f bd d6 46 31 3d 9e e6 e0 bd 44 e1 c3 bb
       -0.050547983 0.043280445 -0.10981487 -0.0059777815
000100 a9 6e 54 bc 72 81 91 3d 32 49 b8 3b 3f 71 23 be
       -0.012965837 0.07104768 0.00562396 -0.15961169
000110 88 cc 1d be 4e f6 3d be 09 ac cd 3c dd 94 08 3e
       -0.15410054 -0.18550989 0.025106447 0.13338037
000120 74 88 2c 3e 67 44 8e bb 09 a7 02 3e 7e 09 d8 bd
       0.16848928 -0.0043416503 0.12759031 -0.105486855
000130 b0 af 5e bd 67 90 23 3d 64 ab f2 bd 2f a4 20 3e
       -0.054366767 0.039932635 -0.118490964 0.15687631
000140 81 63 cd 3d 51 25 43 3e 9f c8 39 bc 21 91 a1 bd
       0.100287445 0.19057204 -0.011339336 -0.07889009
000150 9a 0d 51 bd a6 5b 73 bb 0c 55 b9 bd 99 d5 10 be
       -0.051038362 -0.0037133484 -0.090494245 -0.14143981
000160 bb 75 05 3d 66 1e 95 bd d1 15 15 3d ab 13 02 3e
       0.03258298 -0.07281189 0.03639776 0.12702815
000170 f3 83 ed 3d 19 01 81 bd 62 9d c1 3d ac f6 5e bd
       0.11597433 -0.062990375 0.094538465 -0.054434463
000180 d1 31 d0 3d 85 b9 c6 3c f3 60 1c be 88 ec 33 3e
       0.10165752 0.024258384 -0.15271358 0.17570698
000190 57 d5 20 be 9d c3 f4 3d 00 43 28 be 96 f3 d5 3d
       -0.15706383 0.11951373 -0.16431808 0.10446851
0001a0 c9 47 85 3c c4 78 14 3e 1a 60 20 3e e4 04 b4 3d
       0.016269581 0.14499193 0.1566166 0.08789995
0001b0 df c5 23 3d 20 86 30 bc ce a4 63 3d 78 66 a7 bc
       0.039983626 -0.010774165 0.055577092 -0.020434603
0001c0 89 1f 9d 3d f3 c7 12 3e 8e ef 3e bc a6 b2 06 be
       0.076720305 0.14334087 -0.011653794 -0.13154086
0001d0 c5 2a 09 3e 99 ab 0f 3d 9f 69 24 3c e0 0c 24 be
       0.13395222 0.035075758 0.010034948 -0.16020536
0001e0 9e 07 8f bd 6d 11 80 bd e5 02 73 bd 3b e8 e8 3d
       -0.06983875 -0.06253324 -0.059328932 0.113724194
0001f0 2d 33 0d be 03 f0 1c bb f2 29 e7 bd a5 5b 42 bd
       -0.13789053 -0.002394677 -0.11287297 -0.04745068
000200 51 7b 51 bd 67 60 12 3e c8 05 15 3e 20 5e 1b 3e
       -0.051142994 0.14294587 0.14552987 0.15172625
000210 dd fd 7b bd 86 26 10 3d 57 11 90 bd df 7a 12 be
       -0.0615214 0.03519299 -0.07034557 -0.14304684
000220 a1 a3 04 bd 13 a7 ae bd 02 7b 26 be 7d e1 c8 bd
       -0.03238261 -0.08527961 -0.16257861 -0.098086335
000230 6a 69 fd 3d f6 1d 22 bd 23 54 dc bd c8 4a e4 bd
       0.12373622 -0.039579354 -0.10758235 -0.11147076
000240 fb a1 53 3e 33 fb f7 bd 02 4e df 3d 29 25 0b 3e
       0.2066726 -0.12108459 0.10903551 0.13588394
000250 e0 2e 3d 3e 51 42 2f 3e 9d d7 66 bd 4f c2 41 3e
       0.18474913 0.17115141 -0.05635797 0.18921779
000260 32 10 c3 bd 42 16 1a be 20 11 05 3d 0c 82 72 3d
       -0.095245734 -0.15047553 0.032487035 0.059206054
000270 af 37 71 bd f0 64 00 be 9d 03 e2 bd d3 59 70 3c
       -0.058890995 -0.12538505 -0.110358454 0.014669853
000280 5f b8 2b be 6c 13 80 bd 14 ac 71 bd 56 9d 9b bd
       -0.1676955 -0.062537044 -0.059001997 -0.07598369
000290 63 96 d6 3d 63 77 25 3d 4f e5 e8 3d bb d8 c7 3d
       0.10477903 0.04039706 0.11371862 0.09758135
0002a0 13 94 28 be 8a e9 a6 bd 77 10 71 bd e9 32 6c 3b
       -0.16462736 -0.08150013 -0.058853593 0.0036041087
0002b0 3f ac eb bd a6 72 9d 3d 26 79 19 bd e7 f4 01 3e
       -0.11507463 0.07687883 -0.03746905 0.12691079
0002c0 a2 d1 e7 3b f5 2b 14 be 78 00 11 be 6d ec 98 3d
       0.0070745507 -0.14469893 -0.14160335 0.0746697
0002d0 27 f9 da bd 65 e2 2d bc a4 58 ce 3d 94 5a 9c 3d
       -0.10692053 -0.010613059 0.100755006 0.07634464
0002e0 a2 a4 a6 3d 43 e9 d9 bb 61 06 c3 bd ac ea 21 3e
       0.0813687 -0.0066501214 -0.09522701 0.15812176
0002f0 e4 98 05 be 34 bd 91 3d 36 fc f8 bd 00 1c 03 be
       -0.13046604 0.07116166 -0.121574804 -0.1280365
000300 92 fb b2 bd 80 77 0d be 61 43 f5 3c f4 c2 03 3e
       -0.087393895 -0.13815117 0.029939355 0.12867337
000310 32 e7 08 bd 58 fc c9 3d bc 4d 1c be 92 95 e3 bd
       -0.03342361 0.09862584 -0.15264028 -0.11112513
000320 4f 8b c7 bd f7 b4 e8 bd ef f8 ea bd a4 0b de 3d
       -0.09743368 -0.11362641 -0.114732616 0.10842064
000330 ee 66 5c 3d c2 a2 0e 3e b9 08 41 3d 8f 44 b6 bd
       0.0538091 0.13929275 0.04712746 -0.08899795
000340 84 f7 7b be 10 1f dd bd 4c 12 ca 3b 92 d1 f8 bd
       -0.24606138 -0.1079694 0.006166732 -0.12149347
000350 5f ff 12 3e d4 9b 19 be 4c 9e 4c 3d 7d fe 15 3e
       0.14355229 -0.1500085 0.04995565 0.14647861
000360 a1 c5 ef 3d 05 4b 5c bd 8d bd 34 be 2d 74 81 bc
       0.117076166 -0.05378248 -0.17650433 -0.015802467
000370 1e 5d 18 3e 56 ba 8e 3d 99 a7 f5 bd 48 0c ea bd
       0.14879271 0.069691345 -0.11994857 -0.11428124
000380 0c b2 35 3e 85 b1 16 be 45 58 9a bd 68 6d 16 3d
       0.177437 -0.14716156 -0.07536367 0.03672543
000390 fb 02 66 bd 60 35 e2 bd c9 37 9f bd 15 e9 06 3d
       -0.056155186 -0.11045337 -0.07774312 0.032937128
0003a0 42 75 0f be 83 5a 43 3d 95 15 fd bd 5c e0 ad 3d
       -0.14009574 0.04769374 -0.12357632 0.08490059
0003b0 21 86 79 bc 25 ad cc 3d f8 7e 03 bd f7 c6 24 3e
       -0.015229733 0.09993962 -0.03210351 0.16091524
0003c0 41 54 29 3d ee a9 c5 bd 54 8d 70 bd 5f b6 6a bd
       0.041340116 -0.09651552 -0.05872853 -0.05730283
0003d0 00 97 05 3e a6 61 87 3a 1b 81 8b 3c 24 ee 8c 3d
       0.13045883 0.0010328784 0.017029336 0.06881359
0003e0 77 9f e7 bd 46 77 2e bd 63 13 91 bd 69 d4 95 3b
       -0.113097124 -0.042594217 -0.07083776 0.0045724404
0003f0 95 97 4d 3e 8d 71 38 3e 06 fc 4b bd 6b b7 03 3d
       0.20077355 0.18012066 -0.049800895 0.032157343

blocks.0.fcn_layer.bias f4 [32]
000000 1b c4 aa 3d 24 23 3f be cf fc 06 3e e5 47 0d 3e
       0.083381854 -0.18665749 0.13182376 0.13796957
000010 d5 9e 56 bd c9 6e 02 bd 5a dd ee 3d f7 83 fb bd
       -0.052397568 -0.031843934 0.11663313 -0.1228103
000020 c2 73 c4 3d 67 f5 7e 3c f8 38 21 be 4e 96 b5 3d
       0.095923916 0.015561438 -0.15744388 0.08866559
000030 d0 b0 cb 3d cc 4e 0e 3d b6 3a 32 be 4c f1 12 3e
       0.09945834 0.034743115 -0.17405209 0.1434986
000040 c7 5e ca 3b 7d 07 e4 3d ae aa ef bd 83 aa 7f bc
       0.006175849 0.11134241 -0.117024764 -0.015604618
000050 a8 ac 2e 3e e1 c6 f0 3c ee e2 14 be 2d 48 05 be
       0.1705805 0.029391708 -0.14539692 -0.13015814
000060 57 10 63 3d c1 a5 0b bd 2d 76 9a bd ed ec c0 bd
       0.055435505 -0.034093622 -0.075420715 -0.0942019
000070 48 9f 89 3d 3b bc 8d 3d 99 da 50 3d 6c 40 6a 3d
       0.067198336 0.06920668 0.05098972 0.057190344

blocks.0.layer_norm.weight f4 [32]
000000 5f 06 89 3f b2 3f 84 3f c3 b1 a3 3f d6 78 82 3f
       1.0705069 1.0331938 1.2788624 1.0193126
000010 d7 df 89 3f 18 bb 7f 3f a1 48 71 3f 2c cb 89 3f
       1.0771435 0.9989486 0.9425145 1.0765128
000020 8b be 84 3f fc 08 72 3f 99 29 86 3f 42 5a 80 3f
       1.0370649 0.9454496 1.0481445 1.0027544
000030 5e 08 9e 3f d0 92 84 3f 6f 1e 83 3f 09 af 79 3f
       1.2346303 1.0357304 1.0243663 0.9753271
000040 23 29 88 3f 89 57 78 3f eb 33 84 3f 2b fd 9c 3f
       1.0637554 0.9700857 1.0328344 1.2264761
000050 4e 3f a6 3f 65 7d 9f 3f 45 02 6e 3f cc 9f 8c 3f
       1.2988069 1.2460142 0.92972213 1.0986266
000060 04 b5 9b 3f 02 d4 8b 3f 54 91 ac 3f 4c 93 7f 3f
       1.2164617 1.0924075 1.3481851 0.9983413
000070 41 6b ac 3f 3a 9b 8e 3f c5 32 9e 3f f3 95 85 3f
       1.3470231 1.1141121 1.2359244 1.0436386

blocks.0.layer_norm.bias f4 [32]
000000 f3 9c 14 3d 8c c2 9c 3c 3c 1e 85 3e 8b b0 6b 3c
       0.03628249 0.019135736 0.2599963 0.014385353
000010 cb 0b 95 3d 9b 49 2c 3a d3 e1 1c bd 7e 0a 7b 3d
       0.0727764 0.00065722474 -0.0383013 0.061289303
000020 20 57 ce 3c 3c 68 7c bd 04 f9 f9 3c ae e9 9f 3b
       0.025188029 -0.061622843 0.030514248 0.0048801517
000030 9c b9 76 3e ca 06 05 3d 10 8c c3 3c 40 a4 94 bc
       0.24094242 0.032477178 0.023870498 -0.018144727
000040 41 b8 2f 3d 0c 74 d9 bc 1a 71 f2 3c bc 7c 74 3e
       0.042900328 -0.026544593 0.029594947 0.23875707
000050 51 05 8c 3e 81 d6 82 3e fa 75 a2 bd f5 06 4d 3d
       0.27347806 0.25554278 -0.079326585 0.050055463
000060 99 4d 72 3e 56 0c 93 3d 47 94 93 3e 3f 8b 03 bc
       0.23662414 0.07180087 0.28824064 -0.008028804
000070 96 d8 93 3e b7 f1 b4 3d 8f 0d 76 3e f5 bf 82 3e
       0.2887618 0.08835166 0.2402861 0.25537077

last_layer.weight f4 [1, 32]
000000 64 e0 33 3e 76 7b 07 3e 31 da a8 be 5f 81 c7 3c
       0.17566067 0.1323069 -0.32978967 0.024353681
000010 a4 9d e1 3d 94 d4 84 3d 0b 23 84 3c 1e 3b 7a 3e
       0.11016396 0.064858586 0.016129991 0.24436614
000020 9d ef de 3d 0c 3a 8f bd dd c4 0e 3e 36 5d 35 bc
       0.10885546 -0.069934934 0.13942285 -0.0110695865
000030 58 48 b2 be b2 ae 01 3e b2 60 4e 3c bd 86 03 3d
       -0.3482082 0.12664297 0.012596296 0.03211092
000040 60 b2 0f 3e ef bb 3e bd 89 33 2c 3e 3f cf b2 be
       0.14032888 -0.046565946 0.16816534 -0.3492374
000050 c4 d9 9d be ad f9 97 be 4a cd 94 bc 33 c7 88 3e
       -0.30830204 -0.29682675 -0.018164296 0.26714477
000060 54 da ae be 29 6b 5c 3e c0 37 ae be 1c 45 02 3d
       -0.34150946 0.21525253 -0.3402691 0.03180419
000070 70 dc ac be 40 33 f8 3d 20 35 b9 be 03 6b fe bd
       -0.3376193 0.1211915 -0.36173344 -0.124227546
